data.pth (torch, 32788 bytes, 6 tensors)

lstm.weight_ih_l0 f4 [64, 97]
00000000: b534 103f f1b6 113f 0226 413f cb2d fa3e
00000010: 3141 2f3e 4ddb fb3e 8ff6 4f3f 8dec f13e
00000020: 02ec bc3e 4426 a6be 3363 3cbe aab5 26be
00000030: 1b56 eb3b 464a 763e 788f 37be 0927 003f
00000040: 425a 133f c691 c03e 2207 6f3f b519 dd3e
00000050: 8ca1 0b3f 7c0d 1e3f 0742 013f 1d42 c73e
00000060: 32ca d53d 2740 da3e d3e6 253f 7f61 c53e
00000070: 84e6 ab3e 90c6 c4bc bf6b 043c 3679 163f
00000080: 6c18 a23e 816b acbe d9a6 9b3c e9b8 023f
00000090: b1bc a53c 9d00 5a3e 5131 e93e 3e22 313f
000000a0: 1432 b03e 71e2 143f 6c91 11bd 0c5f 123f
000000b0: 6c09 f63c 9cbf 8f3e b5e9 ad3e b7b6 76be
000000c0: a9af babd 5929 283f a680 14be 3ebf 273f
000000d0: bac8 5c3d f973 c93c e90f 82be 05e0 f53e
000000e0: d6b7 233f 1125 27be fd87 983e 43f8 59bd
000000f0: 1e74 333f 58b4 0c3d 5e9a 533f fcce 163f
00000100: 7a9a 3d3f a386 ea3e 04b7 0c3f dc23 9bbe
00000110: 8c09 113f 6c5b 523f 46c6 4f3e 97c9 183f
00000120: ffda 3b3e e731 91be 8ac7 1dbe 4243 f83e
00000130: 89ca 1d3d ca00 a4bd 0881 4b3f 3ded f83e
00000140: c090 af3e 9628 253f c19d 7d3f 9a06 8c3e
00000150: 8e64 8a3e c0ad ad3e c946 8a3e 295f 9b3e
00000160: b572 e73e 10a9 08be 8fac bf3d f915 6e3e
00000170: 9932 fb3e 39d6 083f 4127 8c3e d196 783f
00000180: 96f9 723f 68f1 a03e 9d1e 1e3f dac9 ce3e
00000190: 5bf2 293f ba9b 1cbe 5f7c 203f ec29 36be
000001a0: b0be b2be 1613 42be d798 3c3f e1b7 2a3f
000001b0: 4dea 023f 69ee 4bbe b5c3 e93d 8b1b 323f
000001c0: 0c74 423f a438 86be e5c9 493f 317e 823e
000001d0: cf02 0cbf 7235 ee3e 0c34 153b bb7f c3be
000001e0: c9f7 143f 715d 5dbe 380c 233f 000d 7ebb
000001f0: 3355 1f3f abcc cebb e3f5 323f 8a54 89bd
00000200: 6563 403e d2d7 853d 1910 e6bd 60cf eabd
00000210: 10a1 023f 1f76 293f 5d8f d43e df27 e8be
00000220: 531f 273f e616 15be efb2 ea3e 8ccd 3e3f
00000230: 6b82 513f 6c2d 1c3f 3fa1 133f 1b92 073f
00000240: 3c1a 52be 7847 353e e731 063f d7d2 4e3f
00000250: 626d aa3d 2764 1c3f 8627 8cbe d67c 8e3e
00000260: c608 b83d bd7b 983e 6c4f e83d 0e78 f5be
00000270: 0bcf 043f a8bb 293f 9c3a c8bc a14d 9f3e
00000280: bd38 3b3f a504 063f 3515 183f 288e e83d
00000290: 1440 82bd 8675 c3bd 9ed9 92be 28e6 9bbd
000002a0: 1c45 0a3f 50ec 6fbe e2c4 8fbd 0ff7 d03e
000002b0: 3481 1a3f 56d5 123f 8a2c 57be 1d65 183d
000002c0: 5710 1f3f a1bd 9abd ccb5 a63e 2f47 5e3f
000002d0: 5a58 e53e 06e2 493f 0ac6 88be 32a9 2d3f
000002e0: d9a4 5bbe 402f d73e 8e4d 12be 087b 813d
000002f0: e1b1 0d3d 69a1 d63e ea00 f1be 0ff0 153f
00000300: e7f4 623f 3c67 b7bd 80d0 203d 2a05 413f
00000310: 1c33 3c3f 6294 05be 66f8 64be 703b 443f
00000320: e1e9 a93e 0c53 003e 878f cdbc 58d7 f93d
00000330: 3368 433f a015 ae3e 44ce 07bc 7f3e 92be
00000340: a3d8 273f 5e26 413f 4421 c83e b11a a4bd
00000350: 0931 e43e dab3 8abe 82b8 a53e 5661 3fbd
00000360: 7af7 1ebe bd46 1e3e 3588 fc3e 20a7 e43d
00000370: 71af f03e 8359 88be 4ee6 9f3e 9096 c53e
00000380: 750d 76be 2c58 313e c055 043e f5e2 493d
00000390: 9e65 e7bd 6483 083e f4b9 013f 1294 c23e
000003a0: d4c4 43be 5ee2 2b3f f249 ea3d d108 8ebe
000003b0: 4a1d f33e cd2b 39be 78d8 113f 6c49 71be
000003c0: e784 2b3d 08a5 1cbf 9f2d 0cbe 8ede 173f
000003d0: a9d1 113f 54ff 453f 5049 e23e df36 ef3d
000003e0: 6df0 363f 3beb 783e 1642 b33e 30eb 4cbe
000003f0: 0c46 1f3f 6107 f23e 67c8 593f 47bf cdbc
0.56330425 0.5691977 0.7544862 0.48863062 0.17114712 0.4919075 0.81235594 0.47250786
0.3689881 -0.3245107 -0.18397216 -0.16280237 0.0071818954 0.2405177 -0.17925823 0.5005956
0.575596 0.37611216 0.9337026 0.43183675 0.54543376 0.61739326 0.50491375 0.38917628
0.10438956 0.4262707 0.64805335 0.38550946 0.33574307 -0.024020463 0.008082329 0.58778703
0.31659257 -0.3367577 0.019000458 0.510634 0.020231577 0.21289296 0.45545438 0.69192874
0.34413207 0.5815802 -0.035539076 0.5717628 0.03003379 0.28075874 0.33967367 -0.24093138
-0.09115536 0.6568809 -0.145022 0.6552619 0.053902365 0.024591433 -0.25402763 0.48022476
0.63952386 -0.16322733 0.2979125 -0.053215276 0.70099056 0.034351677 0.8265742 0.58909583
0.7406384 0.45805845 0.5496676 -0.30300796 0.5665519 0.8217075 0.20290479 0.596826
0.18345259 -0.28358385 -0.1540815 0.48488814 0.03852323 -0.08007963 0.7949376 0.48618498
0.34290123 0.64515054 0.9906884 0.27348787 0.27029842 0.33921623 0.2700713 0.3034604
0.45204702 -0.13345742 0.09359085 0.2325057 0.4906204 0.5345188 0.27373698 0.9710513
0.9491209 0.31434178 0.6176546 0.40388376 0.6638543 -0.1529378 0.62689775 -0.1778943
-0.34911108 -0.18952593 0.73670715 0.66686827 0.51138765 -0.19915165 0.11414281 0.6957328
0.75958323 -0.26215088 0.7882369 0.254869 -0.54691786 0.4652515 0.0022766618 -0.38183388
0.5819059 -0.21617676 0.6369052 -0.0038765073 0.6223938 -0.0063110194 0.69906443 -0.06705578
0.18787916 0.06535305 -0.11233539 -0.11465335 0.5102701 0.66195863 0.41515628 -0.4534292
0.6528217 -0.14559516 0.4583964 0.7453239 0.8183963 0.6100681 0.57667917 0.52957314
-0.2051782 0.17703044 0.52419895 0.80790466 0.08321644 0.6109032 -0.27373904 0.27829617
0.089860484 0.29781905 0.113432735 -0.47943157 0.5187842 0.66301966 -0.02444201 0.31113914
0.7313345 0.52350837 0.5940736 0.11355239 -0.06359878 -0.095439 -0.28681654 -0.07612258
0.540117 -0.2342999 -0.07019974 0.4081349 0.603534 0.57356775 -0.21013084 0.037205804
0.6213431 -0.075557 0.32560575 0.8682737 0.4479397 0.7886051 -0.26713592 0.67836297
-0.21449603 0.42028236 -0.14287397 0.063222945 0.034593467 0.4192002 -0.4707101 0.58569425
0.8865494 -0.08955237 0.03926134 0.75398505 0.73515487 -0.13044885 -0.22360381 0.76653194
0.33186248 0.1253168 -0.025092853 0.12199277 0.7633087 0.34000874 -0.008288924 -0.28563306
0.65564936 0.7544917 0.3908788 -0.080129035 0.4456866 -0.2709034 0.3236733 -0.046723686
-0.15524092 0.15456672 0.49322668 0.11164689 0.4700885 -0.26630792 0.31230396 0.38591433
-0.24028571 0.17318791 0.12923336 0.04928871 -0.11298679 0.13331372 0.50674367 0.38003594
-0.19118053 0.67142284 0.11439885 -0.277411 0.47483283 -0.18083115 0.5697093 -0.23563164
0.041874792 -0.6118932 -0.13689278 0.59323967 0.5696054 0.77342725 0.44196558 0.11680388
0.7146061 0.24308483 0.35011357 -0.20011592 0.6221626 0.47271255 0.85071415 -0.025115622

lstm.weight_hh_l0 f4 [64, 16]
00000000: 98ae f2bd 4668 613e 8848 31be f4c2 823d
00000010: 64f0 e23d 005a 403e 7497 b93d 1626 4fbe
00000020: aa54 543e 7e77 7d3e d264 2b3e a446 50be
00000030: e89e 1bbd ecd6 6dbe 2ccc 38be 808c be3c
00000040: 6872 533e 4495 2f3e e4a1 723e 2c8a 15be
00000050: 20a3 39bd 0a99 043e 9ee4 1ebe 2cb0 1ebe
00000060: 181c 34bd e018 b43c 8476 a5bd 1c6f b0bd
00000070: 7ac7 6fbe 6096 763d b4d1 0c3e 56ad 14be
00000080: d494 a93d 80ad fc3d 80f5 bb3c e099 713e
00000090: 9653 79be 3c0d 51be 602d 21be f018 67bd
000000a0: c0b5 da3b 5420 2abe c80f 7dbe 9e2c 163e
000000b0: f6ca 493e c80d 693d eee2 313e 2060 683e
000000c0: c095 b73d fea1 1c3e 6a18 2fbe 1035 2a3d
000000d0: 6e27 613e 1829 fa3d f041 ebbd eec6 61be
000000e0: 3244 32be aea7 623e 1eba 253e d0a0 823c
000000f0: ba05 30be 9c06 37be 9640 4dbe 8e94 323e
00000100: 9098 f93d 0094 40be b8b4 043d 2c47 9fbd
00000110: 8cf9 0cbe 48d4 f5bd c24f 68be b88b 563d
00000120: 46df 2f3e 66f2 56be 30ed adbc b0f7 98bc
00000130: d09b fcbd 003b 683b 4079 10be cc17 8c3d
00000140: 68d2 003e 6cba 433e 784a 42bd 8a62 0f3e
00000150: f0a7 67be 0cde e63d 1ce4 23be 0082 223b
00000160: a400 dcbd 30e0 4c3d 324c 62be e00b 51be
00000170: f8dc 95bd 641f 3bbe b08d fcbc f0e9 713d
00000180: 006c 253a f0ee d63c 3058 2e3d 4cec 953d
00000190: 0a40 06be 4caf b83d 5266 483e 6c3b 6abe
000001a0: 444a 61be 28f7 4b3e 2080 7b3c acc8 c73d
000001b0: 10e7 86bc 3087 a13c 18b8 683e a085 10bc
000001c0: 90d9 c93c 3cd9 9c3d 08ab b43d 9032 69be
000001d0: 147f 3d3e 9e4a 503e 5e81 54be 4837 e53d
000001e0: 0076 06bb 32a5 55be 0082 0d3a ccdd 7a3e
000001f0: f8d5 f93d c065 4c3e 9449 8f3d 5075 213d
00000200: b0ef f53c 004f 75bd 3875 eebd 40a2 bd3d
00000210: b069 743e 2cbe c8bd e89c f73d ee44 1dbe
00000220: f03d 6ebd 846d e93d b0f2 833c f0e2 c2bd
00000230: 4045 0f3d 9859 1d3d c811 123d 209a 793c
00000240: 02d5 483e f0c7 9a3c 50a9 ca3d 1075 aabd
00000250: 7ccf 06be c094 6abc 68dc 9d3d 887c ee3d
00000260: 4884 7fbe ce9c 683e cc55 013e e49f 1f3e
00000270: 74ba 6d3e 8077 40be 2024 2a3e cea3 52be
00000280: 187c 29bd f08d 6ebe 927a 23be 54bb 743e
00000290: f09e bc3c 9cc4 65be 2831 093e 6008 d93d
000002a0: d87f ebbd bcba 803d 64ff 1b3e d0f4 26bd
000002b0: 5c3e aebd 404f 36bd 2020 dabc c8ec 443d
000002c0: c074 f53b 44fa 5abe 2818 6dbe 2cd6 38be
000002d0: a066 13bc f624 50be 24a4 473e 08e7 7e3e
000002e0: 02b8 603e cccc c6bd 9274 183e a405 25be
000002f0: bced fe3d 2aec 213e d0a0 0e3e eeb2 46be
00000300: cc9e 563e 3ca4 4fbe 08d5 ebbd f01a 873d
00000310: 00bb b73b 5c09 70be 0ef8 1bbe 4c04 393e
00000320: 6033 4ebd 80d1 5dbb 9040 81bd bce6 febd
00000330: 42d1 24be d81f 5a3e 2877 3abe c035 c8bb
00000340: 08f0 93bd 3037 99bc fc0d c33d 2843 983d
00000350: 9abf 5c3e bef2 543e f8ea 34be 9664 70be
00000360: d422 b23d ceb2 59be a877 04be 64d5 1a3e
00000370: 6627 533e 1616 20be bcde 9ebd d024 703e
00000380: 0067 a03c ba58 073e 0055 b33d 2050 79bc
00000390: 60cc a93c 308f e4bc d0ac 66bd 0074 243b
000003a0: c6ce 3cbe fc40 44be 2052 9e3c 98f8 cf3d
000003b0: f0b5 493e d0fc fa3d ba9c 0c3e bcee c1bd
000003c0: 9a6d 7cbe 60a0 d9bc 68fb 15bd 8075 803d
000003d0: f01b 0a3d 34ce 30be 5420 d9bd e08b c13d
000003e0: fc99 5ebe cc97 c23d 30f9 4ebe 80d0 67bd
000003f0: 389e 6bbe f440 ef3d 64ee 3c3e 709f 3ebe
-0.11849707 0.22012433 -0.17312825 0.063848406 0.11081007 0.18784332 0.090620905 -0.20229372
0.20735422 0.24752614 0.16737679 -0.20339447 -0.03799334 -0.23226517 -0.18046635 0.023260355
0.20649111 0.17146784 0.23694569 -0.1460349 -0.045321584 0.12949005 -0.15516898 -0.15496892
-0.043972105 0.021984518 -0.08079246 -0.086149424 -0.23415938 0.060202003 0.1375187 -0.14519247
0.0828034 0.1233778 0.022944212 0.23593855 -0.24348292 -0.20415205 -0.15739965 -0.056420267
0.0066744983 -0.16613895 -0.24713051 0.14665458 0.1970633 0.05689791 0.17371723 0.22692919
0.089641094 0.1529617 -0.17099157 0.04155451 0.21987697 0.12214869 -0.11487186 -0.22048542
-0.17408827 0.22134277 0.1618428 0.015945822 -0.17189685 -0.17873615 -0.20044169 0.17439482
0.12187302 -0.18806458 0.03239891 -0.07777247 -0.1376707 -0.1200338 -0.22686675 0.05237934
0.17175016 -0.20990905 -0.021231264 -0.018672794 -0.123344064 0.0035435557 -0.14108753 0.068404764
0.12580264 0.19114083 -0.0474343 0.14002433 -0.22622657 0.11272821 -0.16004986 0.0024796724
-0.1074231 0.05001849 -0.22099379 -0.20414686 -0.07317537 -0.18273693 -0.03082928 0.05906099
0.0006310344 0.026236981 0.04256457 0.07320461 -0.13110366 0.0901781 0.19570282 -0.2287423
-0.22000986 0.19918501 0.015350372 0.09755072 -0.016467601 0.019717783 0.22726476 -0.008820921
0.024639875 0.07658622 0.08821684 -0.22773194 0.18505508 0.20340964 -0.20752475 0.11192185
-0.002051711 -0.20863798 0.00053980947 0.24498671 0.121990144 0.1996069 0.06996456 0.03941852
0.030021518 -0.059889793 -0.116434515 0.09259462 0.23868442 -0.098018974 0.12090474 -0.15358326
-0.058164537 0.113978416 0.016106933 -0.09515941 0.03497815 0.03841552 0.03566149 0.0152345
0.19612506 0.018894166 0.09895575 -0.08323109 -0.13165087 -0.014317691 0.07708055 0.11644846
-0.24952805 0.22716066 0.12630385 0.15588337 0.23215657 -0.18795586 0.16615343 -0.20570299
-0.04137811 -0.23296332 -0.15964726 0.23899585 0.023025006 -0.22438282 0.13397658 0.105973005
-0.11498994 0.06285617 0.15234143 -0.040760815 -0.08507988 -0.044509172 -0.026626647 0.048077375
0.0074907243 -0.21384531 -0.23153746 -0.1805045 -0.008996636 -0.203266 0.19496208 0.24892819
0.21945193 -0.09707031 0.14888218 -0.16115433 0.12447688 0.15812746 0.13928533 -0.19404194
0.20959014 -0.20277494 -0.11515242 0.06596935 0.005607009 -0.2344107 -0.15231344 0.18068045
-0.050341964 -0.0033846796 -0.063111424 -0.12446353 -0.1609545 0.2130121 -0.18209517 -0.006109923
-0.07223517 -0.018703073 0.09524152 0.07434684 0.21557465 0.20795724 -0.17667758 -0.2347587
0.08698049 -0.21259615 -0.1293627 0.15120465 0.20620498 -0.15633425 -0.07757327 0.23451543
0.019580364 0.1321744 0.08756447 -0.015216857 0.020727336 -0.027900308 -0.05631715 0.0025093555
-0.18438253 -0.19165415 0.01932627 0.10154837 0.1969831 0.122552514 0.13731661 -0.09469363
-0.24651185 -0.02656573 -0.036616713 0.06272411 0.03371805 -0.1726616 -0.10601869 0.09450507
-0.21738428 0.09501609 -0.20212245 -0.056595325 -0.23009574 0.11682311 0.18450314 -0.18615508

lstm.bias_ih_l0 f4 [64]
00000000: 12f4 a73f fb06 c03f 59d0 933f 5d41 ce3f
00000010: 8a7b bd3f 996a a33f a38d cb3f 0d34 be3f
00000020: d9cf 993f ea55 ce3f 9a96 ac3f bf83 cb3f
00000030: 5d44 be3f 76fe c83f c756 a33f 82b9 b73f
00000040: 8481 3a3e 26d5 13be 600e 14bd da80 0e3e
00000050: ea2c 6c3e f81c 363e da3e 02be f03a e93c
00000060: 4026 cbbc 0020 183b 602a 483d b650 573e
00000070: b27d 49be 50e7 6e3d fc58 4e3e a4fb ab3d
00000080: daaf a93e 7fd5 de3e 25a1 943e 3083 123f
00000090: 7d2c 2a3e 49fb 373e 26e4 0e3e a0e1 bb3e
000000a0: 227a 953e b0b2 413e f204 123f 6949 223e
000000b0: 5e0c fe3e 432f bc3e 8f70 943e 83dc 813e
000000c0: b25b a43f 3d99 d43f 58d3 c43f d416 b03f
000000d0: c122 ae3f 8934 ac3f 6753 d13f 6d5a b93f
000000e0: 2fd8 923f abaf c53f 42a5 c33f 1f93 bc3f
000000f0: b51c c63f ef48 c93f 80e2 d93f f886 ca3f
1.3121359 1.500213 1.1547958 1.6113697 1.4803326 1.2766906 1.5902599 1.4859635
1.2016555 1.6119969 1.348346 1.5899581 1.4864613 1.5702655 1.2760857 1.4353487
0.18213469 -0.14436778 -0.03614652 0.1391634 0.23064008 0.17784488 -0.12719288 0.028470486
-0.024798512 0.0023212433 0.048868537 0.21026883 -0.19676855 0.058326066 0.20151132 0.08397606
0.33141977 0.4352226 0.29029194 0.57231426 0.16618533 0.17966951 0.13954219 0.36695576
0.29194742 0.1891582 0.57038796 0.15848316 0.4961881 0.36754808 0.28992125 0.2536355
1.2840483 1.6609265 1.5376997 1.3756967 1.3604356 1.3453532 1.6353577 1.4480721
1.1472224 1.5444235 1.5284808 1.4732398 1.5477511 1.5725383 1.7022247 1.5822439

lstm.bias_hh_l0 f4 [64]
00000000: 2ced c03f d6ce db3f 38eb cc3f b431 a13f
00000010: 5759 9c3f da51 ad3f 3399 b53f 0594 963f
00000020: c147 b23f 5914 c23f 01e7 ac3f a4e3 cd3f
00000030: a317 d63f 49f3 ca3f 203d d53f 6b94 cb3f
00000040: 509f 103d 1481 28be c8a7 d93d bcc0 49be
00000050: 0cb7 833d c0dc a43c 14b2 e23d 6cc2 5cbe
00000060: b088 e4bc c651 453e 1afd 423e 045d 49be
00000070: 76ee 683e e086 d3bc 3c00 a03d 1c78 bb3d
00000080: 2887 9d3e f7cb dd3e 1a0b 643e f546 ca3e
00000090: 7bdf 8c3e 0215 7d3e 858d a83e 6603 c73d
000000a0: 7f67 813e 3350 ac3e c3cf 9b3e 1cef 123e
000000b0: 7bd1 b23e d8eb 3c3e 8b5e 8b3e 7b5c b13e
000000c0: 6d35 973f 7b54 e23f d7fa 993f da48 b73f
000000d0: 5441 b83f ad8d b33f e64b be3f ffca b13f
000000e0: 41d7 bb3f ada1 d83f c853 e33f 0f36 a13f
000000f0: 64a8 db3f 94c5 ba3f ba5b cd3f 97e9 e43f
1.5072379 1.7172496 1.6009283 1.2593293 1.2214764 1.3540604 1.4187378 1.1763922
1.3928148 1.516246 1.3507997 1.6085095 1.6725963 1.5855495 1.6659279 1.5904669
0.035308182 -0.1645549 0.10627705 -0.19702429 0.06431398 0.020124793 0.11069122 -0.21558541
-0.027897209 0.19269475 0.19041863 -0.19664389 0.22747216 -0.02582115 0.07812545 0.091537684
0.3076718 0.43319675 0.2226986 0.3950726 0.27514252 0.24715045 0.3292047 0.09717445
0.25274274 0.33654937 0.30431947 0.14349025 0.34925446 0.18449342 0.27220568 0.3464087
1.1813179 1.7682031 1.2029675 1.4319108 1.4394937 1.4027611 1.4866912 1.3890074
1.4675065 1.692434 1.7759943 1.2594622 1.7160764 1.4591546 1.6043618 1.7883786

fc.weight f4 [8, 16]
00000000: ed13 373f de7d 2bc0 6cfb 523f d89d 3a3f
00000010: b7ac f93e f083 f63e 84fa 24c0 200e cabe
00000020: ebbb 113f cd10 473f 79cc 88bf a8cd 743f
00000030: a748 2dc0 a289 16c0 3484 32c0 8f35 6d3f
00000040: 3479 01c0 d4bd 19c0 f352 0dc0 81a9 fcbf
00000050: 90a0 9f3f cb5b 783f 1ded 963f a911 753f
00000060: 4522 e9bf 701a 943f 9b5f e8bf 3135 13c0
00000070: 28e7 fbbf 8009 10c0 95fe 08c0 6d18 06c0
00000080: 0411 30c0 aec1 543f d10b 353f aef2 5dbe
00000090: ddae 02c0 4b0f 0cc0 19f0 8b3e 0d71 2bc0
000000a0: 5151 f7bf 2ab4 8b3f 2a68 9e3f 3da2 07c0
000000b0: 3074 2b3f 5289 f1bf 4fc9 0ec0 7f1f 88be
000000c0: 5057 06c0 d090 083f d460 813f cf0e 7e3f
000000d0: 3aa1 db3e 32c4 8b3e b880 20c0 c604 27c0
000000e0: d541 e7bf 35c5 ea3e 5ff8 1cc0 0034 01bf
000000f0: 42eb 053f 7249 833f 83ae 203f 7f0f 1fc0
00000100: a81d 363f 54fd 1dc0 96a9 15c0 c7ed 473f
00000110: a4d2 603f 3364 1ec0 4d2a 1ec0 b8d9 1c3f
00000120: 9d5a dd3e 4bab 0cc0 bd17 573f cf3e 803f
00000130: e3b9 603f 1914 22c0 58ff 6d3f ef11 3bc0
00000140: 2397 ef3e 7701 283f 898d 0ac0 0a1d 393f
00000150: b8ea 1bc0 1eb6 e73e f577 1bc0 2c15 9c3e
00000160: 42b2 193f f2a6 13c0 0e44 373f 20d2 24c0
00000170: 8582 16c0 d648 943f 5694 9c3e 65c4 383f
00000180: 9e69 08c0 252a 2bc0 0ffc dabf a66b 0cc0
00000190: eb47 983e 47fe e43e 7de7 a23e ba46 34c0
000001a0: 7f55 febf 41d9 7abe 9229 e4bf c140 923f
000001b0: 4018 1bc0 baa8 a33f a3d7 7c3f 7bb6 aa3f
000001c0: 1b2b 6b3f 7ba0 283f e238 683f ddad 15c0
000001d0: ca98 0ac0 17c8 15c0 5f7f 643f f172 a03f
000001e0: feb5 9e3f 6bc8 1cc0 772c ffbd c4d6 cebf
000001f0: b9ad 1d3f 97e9 fabf 6fca 20c0 a2a7 1dc0
0.7151478 -2.6795573 0.8241489 0.728971 0.48764583 0.48147535 -2.5777903 -0.39463902
0.56927365 0.7776001 -1.06874 0.95626307 -2.7075593 -2.3521504 -2.789319 0.9265985
-2.0230227 -2.4022112 -2.2081878 -1.9739228 1.2470875 0.97015065 1.1791111 0.9573007
-1.8213583 1.1570568 -1.8154176 -2.3001215 -1.9679918 -2.2505798 -2.1405385 -2.0952408
-2.7510386 0.8310803 0.70721155 -0.21674606 -2.0419228 -2.1884334 0.27331617 -2.678775
-1.9321691 1.0914357 1.2375538 -2.1192772 0.66974163 -1.8870032 -2.231037 -0.2658653
-2.0990791 0.53345966 1.0107675 0.99241346 0.42896444 0.27298123 -2.5078564 -2.6096663
-1.8066965 0.45853582 -2.4526594 -0.5046997 0.523121 1.0256789 0.62766284 -2.4853208
0.71139 -2.468587 -2.3384757 0.78097194 0.8782141 -2.4748657 -2.4713318 0.6126971
0.43233195 -2.197955 0.84020597 1.0019168 0.8778364 -2.5324767 0.9296775 -2.9229696
0.46794996 0.65627235 -2.1648886 0.72309935 -2.436201 0.45256132 -2.4291966 0.30484903
0.60037625 -2.3070645 0.7158822 -2.575325 -2.3517163 1.1584728 0.3058192 0.72174674
-2.1314464 -2.6744473 -1.7108172 -2.1940703 0.2974237 0.44725248 0.31817237 -2.8168168
-1.9869841 -0.24496938 -1.7825186 1.1426011 -2.423355 1.2785866 0.98766536 1.3336939
0.9186265 0.65869874 0.90711796 -2.3387368 -2.1655755 -2.3403375 0.8925685 1.2535077
1.239929 -2.4497325 -0.12459653 -1.6159291 0.61593205 -1.9602536 -2.5123556 -2.4633565

fc.bias f4 [8]
00000000: 2d37 03bf f3d3 3f3f a928 183f 3e56 e1be
00000010: 4c81 24be 17d7 9dbe 01c5 c63d f725 e9bd
-0.51256067 0.74932784 0.5943704 -0.4401111 -0.16064948 -0.30828163 0.09705544 -0.11384194
